…
[2023-03-12 07:45:05 mynet_v1] (main_mynet.py 346): INFO {"cfg": "./configs/mynet/mynet_v1.yaml", "opts": null, "batch_size": null, "data_path": "D:\\MyProjects\\GID_processed", "zip": false, "cache_mode": "part", "pretrained": null, "resume": null, "accumulation_steps": null, "use_checkpoint": false, "disable_amp": false, "amp_opt_level": null, "output": "output", "tag": null, "eval": false, "throughput": false, "local_rank": 0, "fused_window_process": false, "fused_layernorm": false, "optim": null}
[2023-03-12 07:45:05 mynet_v1] (main_mynet.py 87): INFO Creating model:mynet/mynet_v1
[2023-03-12 07:45:07 mynet_v1] (main_mynet.py 89): INFO MyNet(
  (swin_backbone): SwinTransformerV2_Backbone(
    (patch_embed): PatchEmbed(
      (proj): Conv2d(3, 128, kernel_size=(4, 4), stride=(4, 4))
      (norm): LayerNorm((128,), eps=1e-05, elementwise_affine=True)
    )
    (pos_drop): Dropout(p=0.0, inplace=False)
    (layers): ModuleList(
      (0): BasicLayer(
        dim=128, input_resolution=(64, 64), depth=2
        (blocks): ModuleList(
          (0): SwinTransformerBlock(
            dim=128, input_resolution=(64, 64), num_heads=4, window_size=8, shift_size=0, mlp_ratio=4.0
            (norm1): LayerNorm((128,), eps=1e-05, elementwise_affine=True)
            (attn): WindowAttention(
              dim=128, window_size=(8, 8), pretrained_window_size=(0, 0), num_heads=4
              (cpb_mlp): Sequential(
                (0): Linear(in_features=2, out_features=512, bias=True)
                (1): ReLU(inplace=True)
                (2): Linear(in_features=512, out_features=4, bias=False)
              )
              (qkv): Linear(in_features=128, out_features=384, bias=False)
              (attn_drop): Dropout(p=0.0, inplace=False)
              (proj): Linear(in_features=128, out_features=128, bias=True)
              (proj_drop): Dropout(p=0.0, inplace=False)
              (softmax): Softmax(dim=-1)
            )
            (drop_path): Identity()
            (norm2): LayerNorm((128,), eps=1e-05, elementwise_affine=True)
            (mlp): Mlp(
              (fc1): Linear(in_features=128, out_features=512, bias=True)
              (act): GELU(approximate='none')
              (fc2): Linear(in_features=512, out_features=128, bias=True)
              (drop): Dropout(p=0.0, inplace=False)
            )
          )
          (1): SwinTransformerBlock(
            dim=128, input_resolution=(64, 64), num_heads=4, window_size=8, shift_size=4, mlp_ratio=4.0
            (norm1): LayerNorm((128,), eps=1e-05, elementwise_affine=True)
            (attn): WindowAttention(
              dim=128, window_size=(8, 8), pretrained_window_size=(0, 0), num_heads=4
              (cpb_mlp): Sequential(
                (0): Linear(in_features=2, out_features=512, bias=True)
                (1): ReLU(inplace=True)
                (2): Linear(in_features=512, out_features=4, bias=False)
              )
              (qkv): Linear(in_features=128, out_features=384, bias=False)
              (attn_drop): Dropout(p=0.0, inplace=False)
              (proj): Linear(in_features=128, out_features=128, bias=True)
              (proj_drop): Dropout(p=0.0, inplace=False)
              (softmax): Softmax(dim=-1)
            )
            (drop_path): DropPath()
            (norm2): LayerNorm((128,), eps=1e-05, elementwise_affine=True)
            (mlp): Mlp(
              (fc1): Linear(in_features=128, out_features=512, bias=True)
              (act): GELU(approximate='none')
              (fc2): Linear(in_features=512, out_features=128, bias=True)
              (drop): Dropout(p=0.0, inplace=False)
            )
          )
        )
        (downsample): PatchMerging(
          input_resolution=(64, 64), dim=128
          (reduction): Linear(in_features=512, out_features=256, bias=False)
          (norm): LayerNorm((256,), eps=1e-05, elementwise_affine=True)
        )
      )
      (1): BasicLayer(
        dim=256, input_resolution=(32, 32), depth=2
        (blocks): ModuleList(
          (0): SwinTransformerBlock(
            dim=256, input_resolution=(32, 32), num_heads=8, window_size=8, shift_size=0, mlp_ratio=4.0
            (norm1): LayerNorm((256,), eps=1e-05, elementwise_affine=True)
            (attn): WindowAttention(
              dim=256, window_size=(8, 8), pretrained_window_size=(0, 0), num_heads=8
              (cpb_mlp): Sequential(
                (0): Linear(in_features=2, out_features=512, bias=True)
                (1): ReLU(inplace=True)
                (2): Linear(in_features=512, out_features=8, bias=False)
              )
              (qkv): Linear(in_features=256, out_features=768, bias=False)
              (attn_drop): Dropout(p=0.0, inplace=False)
              (proj): Linear(in_features=256, out_features=256, bias=True)
              (proj_drop): Dropout(p=0.0, inplace=False)
              (softmax): Softmax(dim=-1)
            )
            (drop_path): DropPath()
            (norm2): LayerNorm((256,), eps=1e-05, elementwise_affine=True)
            (mlp): Mlp(
              (fc1): Linear(in_features=256, out_features=1024, bias=True)
              (act): GELU(approximate='none')
              (fc2): Linear(in_features=1024, out_features=256, bias=True)
              (drop): Dropout(p=0.0, inplace=False)
            )
          )
          (1): SwinTransformerBlock(
            dim=256, input_resolution=(32, 32), num_heads=8, window_size=8, shift_size=4, mlp_ratio=4.0
            (norm1): LayerNorm((256,), eps=1e-05, elementwise_affine=True)
            (attn): WindowAttention(
              dim=256, window_size=(8, 8), pretrained_window_size=(0, 0), num_heads=8
              (cpb_mlp): Sequential(
                (0): Linear(in_features=2, out_features=512, bias=True)
                (1): ReLU(inplace=True)
                (2): Linear(in_features=512, out_features=8, bias=False)
              )
              (qkv): Linear(in_features=256, out_features=768, bias=False)
              (attn_drop): Dropout(p=0.0, inplace=False)
              (proj): Linear(in_features=256, out_features=256, bias=True)
              (proj_drop): Dropout(p=0.0, inplace=False)
              (softmax): Softmax(dim=-1)
            )
            (drop_path): DropPath()
            (norm2): LayerNorm((256,), eps=1e-05, elementwise_affine=True)
            (mlp): Mlp(
              (fc1): Linear(in_features=256, out_features=1024, bias=True)
              (act): GELU(approximate='none')
              (fc2): Linear(in_features=1024, out_features=256, bias=True)
              (drop): Dropout(p=0.0, inplace=False)
            )
          )
        )
        (downsample): PatchMerging(
          input_resolution=(32, 32), dim=256
          (reduction): Linear(in_features=1024, out_features=512, bias=False)
          (norm): LayerNorm((512,), eps=1e-05, elementwise_affine=True)
        )
      )
      (2): BasicLayer(
        dim=512, input_resolution=(16, 16), depth=18
        (blocks): ModuleList(
          (0): SwinTransformerBlock(
            dim=512, input_resolution=(16, 16), num_heads=16, window_size=8, shift_size=0, mlp_ratio=4.0
            (norm1): LayerNorm((512,), eps=1e-05, elementwise_affine=True)
            (attn): WindowAttention(
              dim=512, window_size=(8, 8), pretrained_window_size=(0, 0), num_heads=16
              (cpb_mlp): Sequential(
                (0): Linear(in_features=2, out_features=512, bias=True)
                (1): ReLU(inplace=True)
                (2): Linear(in_features=512, out_features=16, bias=False)
              )
              (qkv): Linear(in_features=512, out_features=1536, bias=False)
              (attn_drop): Dropout(p=0.0, inplace=False)
              (proj): Linear(in_features=512, out_features=512, bias=True)
              (proj_drop): Dropout(p=0.0, inplace=False)
              (softmax): Softmax(dim=-1)
            )
            (drop_path): DropPath()
            (norm2): LayerNorm((512,), eps=1e-05, elementwise_affine=True)
            (mlp): Mlp(
              (fc1): Linear(in_features=512, out_features=2048, bias=True)
              (act): GELU(approximate='none')
              (fc2): Linear(in_features=2048, out_features=512, bias=True)
              (drop): Dropout(p=0.0, inplace=False)
            )
          )
          (1): SwinTransformerBlock(
            dim=512, input_resolution=(16, 16), num_heads=16, window_size=8, shift_size=4, mlp_ratio=4.0
            (norm1): LayerNorm((512,), eps=1e-05, elementwise_affine=True)
            (attn): WindowAttention(
              dim=512, window_size=(8, 8), pretrained_window_size=(0, 0), num_heads=16
              (cpb_mlp): Sequential(
                (0): Linear(in_features=2, out_features=512, bias=True)
                (1): ReLU(inplace=True)
                (2): Linear(in_features=512, out_features=16, bias=False)
              )
              (qkv): Linear(in_features=512, out_features=1536, bias=False)
              (attn_drop): Dropout(p=0.0, inplace=False)
              (proj): Linear(in_features=512, out_features=512, bias=True)
              (proj_drop): Dropout(p=0.0, inplace=False)
              (softmax): Softmax(dim=-1)
            )
            (drop_path): DropPath()
            (norm2): LayerNorm((512,), eps=1e-05, elementwise_affine=True)
            (mlp): Mlp(
              (fc1): Linear(in_features=512, out_features=2048, bias=True)
              (act): GELU(approximate='none')
              (fc2): Linear(in_features=2048, out_features=512, bias=True)
              (drop): Dropout(p=0.0, inplace=False)
            )
          )
          (2): SwinTransformerBlock(
            dim=512, input_resolution=(16, 16), num_heads=16, window_size=8, shift_size=0, mlp_ratio=4.0
            (norm1): LayerNorm((512,), eps=1e-05, elementwise_affine=True)
            (attn): WindowAttention(
              dim=512, window_size=(8, 8), pretrained_window_size=(0, 0), num_heads=16
              (cpb_mlp): Sequential(
                (0): Linear(in_features=2, out_features=512, bias=True)
                (1): ReLU(inplace=True)
                (2): Linear(in_features=512, out_features=16, bias=False)
              )
              (qkv): Linear(in_features=512, out_features=1536, bias=False)
              (attn_drop): Dropout(p=0.0, inplace=False)
              (proj): Linear(in_features=512, out_features=512, bias=True)
              (proj_drop): Dropout(p=0.0, inplace=False)
              (softmax): Softmax(dim=-1)
            )
            (drop_path): DropPath()
            (norm2): LayerNorm((512,), eps=1e-05, elementwise_affine=True)
            (mlp): Mlp(
              (fc1): Linear(in_features=512, out_features=2048, bias=True)
              (act): GELU(approximate='none')
              (fc2): Linear(in_features=2048, out_features=512, bias=True)
              (drop): Dropout(p=0.0, inplace=False)
            )
          )
          (3): SwinTransformerBlock(
            dim=512, input_resolution=(16, 16), num_heads=16, window_size=8, shift_size=4, mlp_ratio=4.0
            (norm1): LayerNorm((512,), eps=1e-05, elementwise_affine=True)
            (attn): WindowAttention(
              dim=512, window_size=(8, 8), pretrained_window_size=(0, 0), num_heads=16
              (cpb_mlp): Sequential(
                (0): Linear(in_features=2, out_features=512, bias=True)
                (1): ReLU(inplace=True)
                (2): Linear(in_features=512, out_features=16, bias=False)
              )
              (qkv): Linear(in_features=512, out_features=1536, bias=False)
              (attn_drop): Dropout(p=0.0, inplace=False)
              (proj): Linear(in_features=512, out_features=512, bias=True)
              (proj_drop): Dropout(p=0.0, inplace=False)
              (softmax): Softmax(dim=-1)
            )
            (drop_path): DropPath()
            (norm2): LayerNorm((512,), eps=1e-05, elementwise_affine=True)
            (mlp): Mlp(
              (fc1): Linear(in_features=512, out_features=2048, bias=True)
              (act): GELU(approximate='none')
              (fc2): Linear(in_features=2048, out_features=512, bias=True)
              (drop): Dropout(p=0.0, inplace=False)
            )
          )
          (4): SwinTransformerBlock(
            dim=512, input_resolution=(16, 16), num_heads=16, window_size=8, shift_size=0, mlp_ratio=4.0
            (norm1): LayerNorm((512,), eps=1e-05, elementwise_affine=True)
            (attn): WindowAttention(
              dim=512, window_size=(8, 8), pretrained_window_size=(0, 0), num_heads=16
              (cpb_mlp): Sequential(
                (0): Linear(in_features=2, out_features=512, bias=True)
                (1): ReLU(inplace=True)
                (2): Linear(in_features=512, out_features=16, bias=False)
              )
              (qkv): Linear(in_features=512, out_features=1536, bias=False)
              (attn_drop): Dropout(p=0.0, inplace=False)
              (proj): Linear(in_features=512, out_features=512, bias=True)
              (proj_drop): Dropout(p=0.0, inplace=False)
              (softmax): Softmax(dim=-1)
            )
            (drop_path): DropPath()
            (norm2): LayerNorm((512,), eps=1e-05, elementwise_affine=True)
            (mlp): Mlp(
              (fc1): Linear(in_features=512, out_features=2048, bias=True)
              (act): GELU(approximate='none')
              (fc2): Linear(in_features=2048, out_features=512, bias=True)
              (drop): Dropout(p=0.0, inplace=False)
            )
          )
          (5): SwinTransformerBlock(
            dim=512, input_resolution=(16, 16), num_heads=16, window_size=8, shift_size=4, mlp_ratio=4.0
            (norm1): LayerNorm((512,), eps=1e-05, elementwise_affine=True)
            (attn): WindowAttention(
              dim=512, window_size=(8, 8), pretrained_window_size=(0, 0), num_heads=16
              (cpb_mlp): Sequential(
                (0): Linear(in_features=2, out_features=512, bias=True)
                (1): ReLU(inplace=True)
                (2): Linear(in_features=512, out_features=16, bias=False)
              )
              (qkv): Linear(in_features=512, out_features=1536, bias=False)
              (attn_drop): Dropout(p=0.0, inplace=False)
              (proj): Linear(in_features=512, out_features=512, bias=True)
              (proj_drop): Dropout(p=0.0, inplace=False)
              (softmax): Softmax(dim=-1)
            )
            (drop_path): DropPath()
            (norm2): LayerNorm((512,), eps=1e-05, elementwise_affine=True)
            (mlp): Mlp(
              (fc1): Linear(in_features=512, out_features=2048, bias=True)
              (act): GELU(approximate='none')
              (fc2): Linear(in_features=2048, out_features=512, bias=True)
              (drop): Dropout(p=0.0, inplace=False)
            )
          )
          (6): SwinTransformerBlock(
            dim=512, input_resolution=(16, 16), num_heads=16, window_size=8, shift_size=0, mlp_ratio=4.0
            (norm1): LayerNorm((512,), eps=1e-05, elementwise_affine=True)
            (attn): WindowAttention(
              dim=512, window_size=(8, 8), pretrained_window_size=(0, 0), num_heads=16
              (cpb_mlp): Sequential(
                (0): Linear(in_features=2, out_features=512, bias=True)
                (1): ReLU(inplace=True)
                (2): Linear(in_features=512, out_features=16, bias=False)
              )
              (qkv): Linear(in_features=512, out_features=1536, bias=False)
              (attn_drop): Dropout(p=0.0, inplace=False)
              (proj): Linear(in_features=512, out_features=512, bias=True)
              (proj_drop): Dropout(p=0.0, inplace=False)
              (softmax): Softmax(dim=-1)
            )
            (drop_path): DropPath()
            (norm2): LayerNorm((512,), eps=1e-05, elementwise_affine=True)
            (mlp): Mlp(
              (fc1): Linear(in_features=512, out_features=2048, bias=True)
              (act): GELU(approximate='none')
              (fc2): Linear(in_features=2048, out_features=512, bias=True)
              (drop): Dropout(p=0.0, inplace=False)
            )
          )
          (7): SwinTransformerBlock(
            dim=512, input_resolution=(16, 16), num_heads=16, window_size=8, shift_size=4, mlp_ratio=4.0
            (norm1): LayerNorm((512,), eps=1e-05, elementwise_affine=True)
            (attn): WindowAttention(
              dim=512, window_size=(8, 8), pretrained_window_size=(0, 0), num_heads=16
              (cpb_mlp): Sequential(
                (0): Linear(in_features=2, out_features=512, bias=True)
                (1): ReLU(inplace=True)
                (2): Linear(in_features=512, out_features=16, bias=False)
              )
              (qkv): Linear(in_features=512, out_features=1536, bias=False)
              (attn_drop): Dropout(p=0.0, inplace=False)
              (proj): Linear(in_features=512, out_features=512, bias=True)
              (proj_drop): Dropout(p=0.0, inplace=False)
              (softmax): Softmax(dim=-1)
            )
            (drop_path): DropPath()
            (norm2): LayerNorm((512,), eps=1e-05, elementwise_affine=True)
            (mlp): Mlp(
              (fc1): Linear(in_features=512, out_features=2048, bias=True)
              (act): GELU(approximate='none')
              (fc2): Linear(in_features=2048, out_features=512, bias=True)
              (drop): Dropout(p=0.0, inplace=False)
            )
          )
          (8): SwinTransformerBlock(
            dim=512, input_resolution=(16, 16), num_heads=16, window_size=8, shift_size=0, mlp_ratio=4.0
            (norm1): LayerNorm((512,), eps=1e-05, elementwise_affine=True)
            (attn): WindowAttention(
              dim=512, window_size=(8, 8), pretrained_window_size=(0, 0), num_heads=16
              (cpb_mlp): Sequential(
                (0): Linear(in_features=2, out_features=512, bias=True)
                (1): ReLU(inplace=True)
                (2): Linear(in_features=512, out_features=16, bias=False)
              )
              (qkv): Linear(in_features=512, out_features=1536, bias=False)
              (attn_drop): Dropout(p=0.0, inplace=False)
              (proj): Linear(in_features=512, out_features=512, bias=True)
              (proj_drop): Dropout(p=0.0, inplace=False)
              (softmax): Softmax(dim=-1)
            )
            (drop_path): DropPath()
            (norm2): LayerNorm((512,), eps=1e-05, elementwise_affine=True)
            (mlp): Mlp(
              (fc1): Linear(in_features=512, out_features=2048, bias=True)
              (act): GELU(approximate='none')
              (fc2): Linear(in_features=2048, out_features=512, bias=True)
              (drop): Dropout(p=0.0, inplace=False)
            )
          )
          (9): SwinTransformerBlock(
            dim=512, input_resolution=(16, 16), num_heads=16, window_size=8, shift_size=4, mlp_ratio=4.0
            (norm1): LayerNorm((512,), eps=1e-05, elementwise_affine=True)
            (attn): WindowAttention(
              dim=512, window_size=(8, 8), pretrained_window_size=(0, 0), num_heads=16
              (cpb_mlp): Sequential(
                (0): Linear(in_features=2, out_features=512, bias=True)
                (1): ReLU(inplace=True)
                (2): Linear(in_features=512, out_features=16, bias=False)
              )
              (qkv): Linear(in_features=512, out_features=1536, bias=False)
              (attn_drop): Dropout(p=0.0, inplace=False)
              (proj): Linear(in_features=512, out_features=512, bias=True)
              (proj_drop): Dropout(p=0.0, inplace=False)
              (softmax): Softmax(dim=-1)
            )
            (drop_path): DropPath()
            (norm2): LayerNorm((512,), eps=1e-05, elementwise_affine=True)
            (mlp): Mlp(
              (fc1): Linear(in_features=512, out_features=2048, bias=True)
              (act): GELU(approximate='none')
              (fc2): Linear(in_features=2048, out_features=512, bias=True)
              (drop): Dropout(p=0.0, inplace=False)
            )
          )
          (10): SwinTransformerBlock(
            dim=512, input_resolution=(16, 16), num_heads=16, window_size=8, shift_size=0, mlp_ratio=4.0
            (norm1): LayerNorm((512,), eps=1e-05, elementwise_affine=True)
            (attn): WindowAttention(
              dim=512, window_size=(8, 8), pretrained_window_size=(0, 0), num_heads=16
              (cpb_mlp): Sequential(
                (0): Linear(in_features=2, out_features=512, bias=True)
                (1): ReLU(inplace=True)
                (2): Linear(in_features=512, out_features=16, bias=False)
              )
              (qkv): Linear(in_features=512, out_features=1536, bias=False)
              (attn_drop): Dropout(p=0.0, inplace=False)
              (proj): Linear(in_features=512, out_features=512, bias=True)
              (proj_drop): Dropout(p=0.0, inplace=False)
              (softmax): Softmax(dim=-1)
            )
            (drop_path): DropPath()
            (norm2): LayerNorm((512,), eps=1e-05, elementwise_affine=True)
            (mlp): Mlp(
              (fc1): Linear(in_features=512, out_features=2048, bias=True)
              (act): GELU(approximate='none')
              (fc2): Linear(in_features=2048, out_features=512, bias=True)
              (drop): Dropout(p=0.0, inplace=False)
            )
          )
          (11): SwinTransformerBlock(
            dim=512, input_resolution=(16, 16), num_heads=16, window_size=8, shift_size=4, mlp_ratio=4.0
            (norm1): LayerNorm((512,), eps=1e-05, elementwise_affine=True)
            (attn): WindowAttention(
              dim=512, window_size=(8, 8), pretrained_window_size=(0, 0), num_heads=16
              (cpb_mlp): Sequential(
                (0): Linear(in_features=2, out_features=512, bias=True)
                (1): ReLU(inplace=True)
                (2): Linear(in_features=512, out_features=16, bias=False)
              )
              (qkv): Linear(in_features=512, out_features=1536, bias=False)
              (attn_drop): Dropout(p=0.0, inplace=False)
              (proj): Linear(in_features=512, out_features=512, bias=True)
              (proj_drop): Dropout(p=0.0, inplace=False)
              (softmax): Softmax(dim=-1)
            )
            (drop_path): DropPath()
            (norm2): LayerNorm((512,), eps=1e-05, elementwise_affine=True)
            (mlp): Mlp(
              (fc1): Linear(in_features=512, out_features=2048, bias=True)
              (act): GELU(approximate='none')
              (fc2): Linear(in_features=2048, out_features=512, bias=True)
              (drop): Dropout(p=0.0, inplace=False)
            )
          )
          (12): SwinTransformerBlock(
            dim=512, input_resolution=(16, 16), num_heads=16, window_size=8, shift_size=0, mlp_ratio=4.0
            (norm1): LayerNorm((512,), eps=1e-05, elementwise_affine=True)
            (attn): WindowAttention(
              dim=512, window_size=(8, 8), pretrained_window_size=(0, 0), num_heads=16
              (cpb_mlp): Sequential(
                (0): Linear(in_features=2, out_features=512, bias=True)
                (1): ReLU(inplace=True)
                (2): Linear(in_features=512, out_features=16, bias=False)
              )
              (qkv): Linear(in_features=512, out_features=1536, bias=False)
              (attn_drop): Dropout(p=0.0, inplace=False)
              (proj): Linear(in_features=512, out_features=512, bias=True)
              (proj_drop): Dropout(p=0.0, inplace=False)
              (softmax): Softmax(dim=-1)
            )
            (drop_path): DropPath()
            (norm2): LayerNorm((512,), eps=1e-05, elementwise_affine=True)
            (mlp): Mlp(
              (fc1): Linear(in_features=512, out_features=2048, bias=True)
              (act): GELU(approximate='none')
              (fc2): Linear(in_features=2048, out_features=512, bias=True)
              (drop): Dropout(p=0.0, inplace=False)
            )
          )
          (13): SwinTransformerBlock(
            dim=512, input_resolution=(16, 16), num_heads=16, window_size=8, shift_size=4, mlp_ratio=4.0
            (norm1): LayerNorm((512,), eps=1e-05, elementwise_affine=True)
            (attn): WindowAttention(
              dim=512, window_size=(8, 8), pretrained_window_size=(0, 0), num_heads=16
              (cpb_mlp): Sequential(
                (0): Linear(in_features=2, out_features=512, bias=True)
                (1): ReLU(inplace=True)
                (2): Linear(in_features=512, out_features=16, bias=False)
              )
              (qkv): Linear(in_features=512, out_features=1536, bias=False)
              (attn_drop): Dropout(p=0.0, inplace=False)
              (proj): Linear(in_features=512, out_features=512, bias=True)
              (proj_drop): Dropout(p=0.0, inplace=False)
              (softmax): Softmax(dim=-1)
            )
            (drop_path): DropPath()
            (norm2): LayerNorm((512,), eps=1e-05, elementwise_affine=True)
            (mlp): Mlp(
              (fc1): Linear(in_features=512, out_features=2048, bias=True)
              (act): GELU(approximate='none')
              (fc2): Linear(in_features=2048, out_features=512, bias=True)
              (drop): Dropout(p=0.0, inplace=False)
            )
          )
          (14): SwinTransformerBlock(
            dim=512, input_resolution=(16, 16), num_heads=16, window_size=8, shift_size=0, mlp_ratio=4.0
            (norm1): LayerNorm((512,), eps=1e-05, elementwise_affine=True)
            (attn): WindowAttention(
              dim=512, window_size=(8, 8), pretrained_window_size=(0, 0), num_heads=16
              (cpb_mlp): Sequential(
                (0): Linear(in_features=2, out_features=512, bias=True)
                (1): ReLU(inplace=True)
                (2): Linear(in_features=512, out_features=16, bias=False)
              )
              (qkv): Linear(in_features=512, out_features=1536, bias=False)
              (attn_drop): Dropout(p=0.0, inplace=False)
              (proj): Linear(in_features=512, out_features=512, bias=True)
              (proj_drop): Dropout(p=0.0, inplace=False)
              (softmax): Softmax(dim=-1)
            )
            (drop_path): DropPath()
            (norm2): LayerNorm((512,), eps=1e-05, elementwise_affine=True)
            (mlp): Mlp(
              (fc1): Linear(in_features=512, out_features=2048, bias=True)
              (act): GELU(approximate='none')
              (fc2): Linear(in_features=2048, out_features=512, bias=True)
              (drop): Dropout(p=0.0, inplace=False)
            )
          )
          (15): SwinTransformerBlock(
            dim=512, input_resolution=(16, 16), num_heads=16, window_size=8, shift_size=4, mlp_ratio=4.0
            (norm1): LayerNorm((512,), eps=1e-05, elementwise_affine=True)
            (attn): WindowAttention(
              dim=512, window_size=(8, 8), pretrained_window_size=(0, 0), num_heads=16
              (cpb_mlp): Sequential(
                (0): Linear(in_features=2, out_features=512, bias=True)
                (1): ReLU(inplace=True)
                (2): Linear(in_features=512, out_features=16, bias=False)
              )
              (qkv): Linear(in_features=512, out_features=1536, bias=False)
              (attn_drop): Dropout(p=0.0, inplace=False)
              (proj): Linear(in_features=512, out_features=512, bias=True)
              (proj_drop): Dropout(p=0.0, inplace=False)
              (softmax): Softmax(dim=-1)
            )
            (drop_path): DropPath()
            (norm2): LayerNorm((512,), eps=1e-05, elementwise_affine=True)
            (mlp): Mlp(
              (fc1): Linear(in_features=512, out_features=2048, bias=True)
              (act): GELU(approximate='none')
              (fc2): Linear(in_features=2048, out_features=512, bias=True)
              (drop): Dropout(p=0.0, inplace=False)
            )
          )
          (16): SwinTransformerBlock(
            dim=512, input_resolution=(16, 16), num_heads=16, window_size=8, shift_size=0, mlp_ratio=4.0
            (norm1): LayerNorm((512,), eps=1e-05, elementwise_affine=True)
            (attn): WindowAttention(
              dim=512, window_size=(8, 8), pretrained_window_size=(0, 0), num_heads=16
              (cpb_mlp): Sequential(
                (0): Linear(in_features=2, out_features=512, bias=True)
                (1): ReLU(inplace=True)
                (2): Linear(in_features=512, out_features=16, bias=False)
              )
              (qkv): Linear(in_features=512, out_features=1536, bias=False)
              (attn_drop): Dropout(p=0.0, inplace=False)
              (proj): Linear(in_features=512, out_features=512, bias=True)
              (proj_drop): Dropout(p=0.0, inplace=False)
              (softmax): Softmax(dim=-1)
            )
            (drop_path): DropPath()
            (norm2): LayerNorm((512,), eps=1e-05, elementwise_affine=True)
            (mlp): Mlp(
              (fc1): Linear(in_features=512, out_features=2048, bias=True)
              (act): GELU(approximate='none')
              (fc2): Linear(in_features=2048, out_features=512, bias=True)
              (drop): Dropout(p=0.0, inplace=False)
            )
          )
          (17): SwinTransformerBlock(
            dim=512, input_resolution=(16, 16), num_heads=16, window_size=8, shift_size=4, mlp_ratio=4.0
            (norm1): LayerNorm((512,), eps=1e-05, elementwise_affine=True)
            (attn): WindowAttention(
              dim=512, window_size=(8, 8), pretrained_window_size=(0, 0), num_heads=16
              (cpb_mlp): Sequential(
                (0): Linear(in_features=2, out_features=512, bias=True)
                (1): ReLU(inplace=True)
                (2): Linear(in_features=512, out_features=16, bias=False)
              )
              (qkv): Linear(in_features=512, out_features=1536, bias=False)
              (attn_drop): Dropout(p=0.0, inplace=False)
              (proj): Linear(in_features=512, out_features=512, bias=True)
              (proj_drop): Dropout(p=0.0, inplace=False)
              (softmax): Softmax(dim=-1)
            )
            (drop_path): DropPath()
            (norm2): LayerNorm((512,), eps=1e-05, elementwise_affine=True)
            (mlp): Mlp(
              (fc1): Linear(in_features=512, out_features=2048, bias=True)
              (act): GELU(approximate='none')
              (fc2): Linear(in_features=2048, out_features=512, bias=True)
              (drop): Dropout(p=0.0, inplace=False)
            )
          )
        )
        (downsample): PatchMerging(
          input_resolution=(16, 16), dim=512
          (reduction): Linear(in_features=2048, out_features=1024, bias=False)
          (norm): LayerNorm((1024,), eps=1e-05, elementwise_affine=True)
        )
      )
      (3): BasicLayer(
        dim=1024, input_resolution=(8, 8), depth=2
        (blocks): ModuleList(
          (0): SwinTransformerBlock(
            dim=1024, input_resolution=(8, 8), num_heads=32, window_size=8, shift_size=0, mlp_ratio=4.0
            (norm1): LayerNorm((1024,), eps=1e-05, elementwise_affine=True)
            (attn): WindowAttention(
              dim=1024, window_size=(8, 8), pretrained_window_size=(0, 0), num_heads=32
              (cpb_mlp): Sequential(
                (0): Linear(in_features=2, out_features=512, bias=True)
                (1): ReLU(inplace=True)
                (2): Linear(in_features=512, out_features=32, bias=False)
              )
              (qkv): Linear(in_features=1024, out_features=3072, bias=False)
              (attn_drop): Dropout(p=0.0, inplace=False)
              (proj): Linear(in_features=1024, out_features=1024, bias=True)
              (proj_drop): Dropout(p=0.0, inplace=False)
              (softmax): Softmax(dim=-1)
            )
            (drop_path): DropPath()
            (norm2): LayerNorm((1024,), eps=1e-05, elementwise_affine=True)
            (mlp): Mlp(
              (fc1): Linear(in_features=1024, out_features=4096, bias=True)
              (act): GELU(approximate='none')
              (fc2): Linear(in_features=4096, out_features=1024, bias=True)
              (drop): Dropout(p=0.0, inplace=False)
            )
          )
          (1): SwinTransformerBlock(
            dim=1024, input_resolution=(8, 8), num_heads=32, window_size=8, shift_size=0, mlp_ratio=4.0
            (norm1): LayerNorm((1024,), eps=1e-05, elementwise_affine=True)
            (attn): WindowAttention(
              dim=1024, window_size=(8, 8), pretrained_window_size=(0, 0), num_heads=32
              (cpb_mlp): Sequential(
                (0): Linear(in_features=2, out_features=512, bias=True)
                (1): ReLU(inplace=True)
                (2): Linear(in_features=512, out_features=32, bias=False)
              )
              (qkv): Linear(in_features=1024, out_features=3072, bias=False)
              (attn_drop): Dropout(p=0.0, inplace=False)
              (proj): Linear(in_features=1024, out_features=1024, bias=True)
              (proj_drop): Dropout(p=0.0, inplace=False)
              (softmax): Softmax(dim=-1)
            )
            (drop_path): DropPath()
            (norm2): LayerNorm((1024,), eps=1e-05, elementwise_affine=True)
            (mlp): Mlp(
              (fc1): Linear(in_features=1024, out_features=4096, bias=True)
              (act): GELU(approximate='none')
              (fc2): Linear(in_features=4096, out_features=1024, bias=True)
              (drop): Dropout(p=0.0, inplace=False)
            )
          )
        )
      )
    )
    (norm): LayerNorm((1024,), eps=1e-05, elementwise_affine=True)
    (avgpool): AdaptiveAvgPool1d(output_size=3)
  )
  (decoder): Decoder()
)
[2023-03-12 07:45:07 mynet_v1] (main_mynet.py 92): INFO number of params: 86893816
[2023-03-12 07:45:07 mynet_v1] (main_mynet.py 95): INFO number of GFLOPs: 0.0
[2023-03-12 07:47:04 mynet_v1] (main_mynet.py 350): INFO Full config saved to output\mynet_v1\default\config.json
[2023-03-12 07:47:04 mynet_v1] (main_mynet.py 353): INFO AMP_ENABLE: true
…
[2023-03-14 12:58:31 mynet_v1] (main_mynet.py 357): INFO {"cfg": "./configs/mynet/mynet_v1.yaml", "data_path": "D:\\MyProjects\\GID_processed\\GID", "opts": null, "batch_size": null, "zip": false, "cache_mode": "part", "pretrained": null, "resume": null, "accumulation_steps": null, "use_checkpoint": false, "disable_amp": false, "amp_opt_level": null, "output": "output", "tag": null, "eval": false, "throughput": false, "local_rank": 0, "fused_window_process": false, "fused_layernorm": false, "optim": null}
[2023-03-14 12:58:31 mynet_v1] (main_mynet.py 97): INFO Creating model:mynet/mynet_v1
[2023-03-14 12:58:32 mynet_v1] (main_mynet.py 99): INFO MyNet(
  (swin_backbone): SwinTransformerV2_Backbone(
    (patch_embed): PatchEmbed(
      (proj): Conv2d(3, 128, kernel_size=(4, 4), stride=(4, 4))
      (norm): LayerNorm((128,), eps=1e-05, elementwise_affine=True)
    )
    (pos_drop): Dropout(p=0.0, inplace=False)
    (layers): ModuleList(
      (0): BasicLayer(
        dim=128, input_resolution=(64, 64), depth=2
        (blocks): ModuleList(
          (0): SwinTransformerBlock(
            dim=128, input_resolution=(64, 64), num_heads=4, window_size=8, shift_size=0, mlp_ratio=4.0
            (norm1): LayerNorm((128,), eps=1e-05, elementwise_affine=True)
            (attn): WindowAttention(
              dim=128, window_size=(8, 8), pretrained_window_size=(0, 0), num_heads=4
              (cpb_mlp): Sequential(
                (0): Linear(in_features=2, out_features=512, bias=True)
                (1): ReLU(inplace=True)
                (2): Linear(in_features=512, out_features=4, bias=False)
              )
              (qkv): Linear(in_features=128, out_features=384, bias=False)
              (attn_drop): Dropout(p=0.0, inplace=False)
              (proj): Linear(in_features=128, out_features=128, bias=True)
              (proj_drop): Dropout(p=0.0, inplace=False)
              (softmax): Softmax(dim=-1)
            )
            (drop_path): Identity()
            (norm2): LayerNorm((128,), eps=1e-05, elementwise_affine=True)
            (mlp): Mlp(
              (fc1): Linear(in_features=128, out_features=512, bias=True)
              (act): GELU(approximate='none')
              (fc2): Linear(in_features=512, out_features=128, bias=True)
              (drop): Dropout(p=0.0, inplace=False)
            )
          )
          (1): SwinTransformerBlock(
            dim=128, input_resolution=(64, 64), num_heads=4, window_size=8, shift_size=4, mlp_ratio=4.0
            (norm1): LayerNorm((128,), eps=1e-05, elementwise_affine=True)
            (attn): WindowAttention(
              dim=128, window_size=(8, 8), pretrained_window_size=(0, 0), num_heads=4
              (cpb_mlp): Sequential(
                (0): Linear(in_features=2, out_features=512, bias=True)
                (1): ReLU(inplace=True)
                (2): Linear(in_features=512, out_features=4, bias=False)
              )
              (qkv): Linear(in_features=128, out_features=384, bias=False)
              (attn_drop): Dropout(p=0.0, inplace=False)
              (proj): Linear(in_features=128, out_features=128, bias=True)
              (proj_drop): Dropout(p=0.0, inplace=False)
              (softmax): Softmax(dim=-1)
            )
            (drop_path): DropPath()
            (norm2): LayerNorm((128,), eps=1e-05, elementwise_affine=True)
            (mlp): Mlp(
              (fc1): Linear(in_features=128, out_features=512, bias=True)
              (act): GELU(approximate='none')
              (fc2): Linear(in_features=512, out_features=128, bias=True)
              (drop): Dropout(p=0.0, inplace=False)
            )
          )
        )
        (downsample): PatchMerging(
          input_resolution=(64, 64), dim=128
          (reduction): Linear(in_features=512, out_features=256, bias=False)
          (norm): LayerNorm((256,), eps=1e-05, elementwise_affine=True)
        )
      )
      (1): BasicLayer(
        dim=256, input_resolution=(32, 32), depth=2
        (blocks): ModuleList(
          (0): SwinTransformerBlock(
            dim=256, input_resolution=(32, 32), num_heads=8, window_size=8, shift_size=0, mlp_ratio=4.0
            (norm1): LayerNorm((256,), eps=1e-05, elementwise_affine=True)
            (attn): WindowAttention(
              dim=256, window_size=(8, 8), pretrained_window_size=(0, 0), num_heads=8
              (cpb_mlp): Sequential(
                (0): Linear(in_features=2, out_features=512, bias=True)
                (1): ReLU(inplace=True)
                (2): Linear(in_features=512, out_features=8, bias=False)
              )
              (qkv): Linear(in_features=256, out_features=768, bias=False)
              (attn_drop): Dropout(p=0.0, inplace=False)
              (proj): Linear(in_features=256, out_features=256, bias=True)
              (proj_drop): Dropout(p=0.0, inplace=False)
              (softmax): Softmax(dim=-1)
            )
            (drop_path): DropPath()
            (norm2): LayerNorm((256,), eps=1e-05, elementwise_affine=True)
            (mlp): Mlp(
              (fc1): Linear(in_features=256, out_features=1024, bias=True)
              (act): GELU(approximate='none')
              (fc2): Linear(in_features=1024, out_features=256, bias=True)
              (drop): Dropout(p=0.0, inplace=False)
            )
          )
          (1): SwinTransformerBlock(
            dim=256, input_resolution=(32, 32), num_heads=8, window_size=8, shift_size=4, mlp_ratio=4.0
            (norm1): LayerNorm((256,), eps=1e-05, elementwise_affine=True)
            (attn): WindowAttention(
              dim=256, window_size=(8, 8), pretrained_window_size=(0, 0), num_heads=8
              (cpb_mlp): Sequential(
                (0): Linear(in_features=2, out_features=512, bias=True)
                (1): ReLU(inplace=True)
                (2): Linear(in_features=512, out_features=8, bias=False)
              )
              (qkv): Linear(in_features=256, out_features=768, bias=False)
              (attn_drop): Dropout(p=0.0, inplace=False)
              (proj): Linear(in_features=256, out_features=256, bias=True)
              (proj_drop): Dropout(p=0.0, inplace=False)
              (softmax): Softmax(dim=-1)
            )
            (drop_path): DropPath()
            (norm2): LayerNorm((256,), eps=1e-05, elementwise_affine=True)
            (mlp): Mlp(
              (fc1): Linear(in_features=256, out_features=1024, bias=True)
              (act): GELU(approximate='none')
              (fc2): Linear(in_features=1024, out_features=256, bias=True)
              (drop): Dropout(p=0.0, inplace=False)
            )
          )
        )
        (downsample): PatchMerging(
          input_resolution=(32, 32), dim=256
          (reduction): Linear(in_features=1024, out_features=512, bias=False)
          (norm): LayerNorm((512,), eps=1e-05, elementwise_affine=True)
        )
      )
      (2): BasicLayer(
        dim=512, input_resolution=(16, 16), depth=18
        (blocks): ModuleList(
          (0): SwinTransformerBlock(
            dim=512, input_resolution=(16, 16), num_heads=16, window_size=8, shift_size=0, mlp_ratio=4.0
            (norm1): LayerNorm((512,), eps=1e-05, elementwise_affine=True)
            (attn): WindowAttention(
              dim=512, window_size=(8, 8), pretrained_window_size=(0, 0), num_heads=16
              (cpb_mlp): Sequential(
                (0): Linear(in_features=2, out_features=512, bias=True)
                (1): ReLU(inplace=True)
                (2): Linear(in_features=512, out_features=16, bias=False)
              )
              (qkv): Linear(in_features=512, out_features=1536, bias=False)
              (attn_drop): Dropout(p=0.0, inplace=False)
              (proj): Linear(in_features=512, out_features=512, bias=True)
              (proj_drop): Dropout(p=0.0, inplace=False)
              (softmax): Softmax(dim=-1)
            )
            (drop_path): DropPath()
            (norm2): LayerNorm((512,), eps=1e-05, elementwise_affine=True)
            (mlp): Mlp(
              (fc1): Linear(in_features=512, out_features=2048, bias=True)
              (act): GELU(approximate='none')
              (fc2): Linear(in_features=2048, out_features=512, bias=True)
              (drop): Dropout(p=0.0, inplace=False)
            )
          )
          (1): SwinTransformerBlock(
            dim=512, input_resolution=(16, 16), num_heads=16, window_size=8, shift_size=4, mlp_ratio=4.0
            (norm1): LayerNorm((512,), eps=1e-05, elementwise_affine=True)
            (attn): WindowAttention(
              dim=512, window_size=(8, 8), pretrained_window_size=(0, 0), num_heads=16
              (cpb_mlp): Sequential(
                (0): Linear(in_features=2, out_features=512, bias=True)
                (1): ReLU(inplace=True)
                (2): Linear(in_features=512, out_features=16, bias=False)
              )
              (qkv): Linear(in_features=512, out_features=1536, bias=False)
              (attn_drop): Dropout(p=0.0, inplace=False)
              (proj): Linear(in_features=512, out_features=512, bias=True)
              (proj_drop): Dropout(p=0.0, inplace=False)
              (softmax): Softmax(dim=-1)
            )
            (drop_path): DropPath()
            (norm2): LayerNorm((512,), eps=1e-05, elementwise_affine=True)
            (mlp): Mlp(
              (fc1): Linear(in_features=512, out_features=2048, bias=True)
              (act): GELU(approximate='none')
              (fc2): Linear(in_features=2048, out_features=512, bias=True)
              (drop): Dropout(p=0.0, inplace=False)
            )
          )
          (2): SwinTransformerBlock(
            dim=512, input_resolution=(16, 16), num_heads=16, window_size=8, shift_size=0, mlp_ratio=4.0
            (norm1): LayerNorm((512,), eps=1e-05, elementwise_affine=True)
            (attn): WindowAttention(
              dim=512, window_size=(8, 8), pretrained_window_size=(0, 0), num_heads=16
              (cpb_mlp): Sequential(
                (0): Linear(in_features=2, out_features=512, bias=True)
                (1): ReLU(inplace=True)
                (2): Linear(in_features=512, out_features=16, bias=False)
              )
              (qkv): Linear(in_features=512, out_features=1536, bias=False)
              (attn_drop): Dropout(p=0.0, inplace=False)
              (proj): Linear(in_features=512, out_features=512, bias=True)
              (proj_drop): Dropout(p=0.0, inplace=False)
              (softmax): Softmax(dim=-1)
            )
            (drop_path): DropPath()
            (norm2): LayerNorm((512,), eps=1e-05, elementwise_affine=True)
            (mlp): Mlp(
              (fc1): Linear(in_features=512, out_features=2048, bias=True)
              (act): GELU(approximate='none')
              (fc2): Linear(in_features=2048, out_features=512, bias=True)
              (drop): Dropout(p=0.0, inplace=False)
            )
          )
          (3): SwinTransformerBlock(
            dim=512, input_resolution=(16, 16), num_heads=16, window_size=8, shift_size=4, mlp_ratio=4.0
            (norm1): LayerNorm((512,), eps=1e-05, elementwise_affine=True)
            (attn): WindowAttention(
              dim=512, window_size=(8, 8), pretrained_window_size=(0, 0), num_heads=16
              (cpb_mlp): Sequential(
                (0): Linear(in_features=2, out_features=512, bias=True)
                (1): ReLU(inplace=True)
                (2): Linear(in_features=512, out_features=16, bias=False)
              )
              (qkv): Linear(in_features=512, out_features=1536, bias=False)
              (attn_drop): Dropout(p=0.0, inplace=False)
              (proj): Linear(in_features=512, out_features=512, bias=True)
              (proj_drop): Dropout(p=0.0, inplace=False)
              (softmax): Softmax(dim=-1)
            )
            (drop_path): DropPath()
            (norm2): LayerNorm((512,), eps=1e-05, elementwise_affine=True)
            (mlp): Mlp(
              (fc1): Linear(in_features=512, out_features=2048, bias=True)
              (act): GELU(approximate='none')
              (fc2): Linear(in_features=2048, out_features=512, bias=True)
              (drop): Dropout(p=0.0, inplace=False)
            )
          )
          (4): SwinTransformerBlock(
            dim=512, input_resolution=(16, 16), num_heads=16, window_size=8, shift_size=0, mlp_ratio=4.0
            (norm1): LayerNorm((512,), eps=1e-05, elementwise_affine=True)
            (attn): WindowAttention(
              dim=512, window_size=(8, 8), pretrained_window_size=(0, 0), num_heads=16
              (cpb_mlp): Sequential(
                (0): Linear(in_features=2, out_features=512, bias=True)
                (1): ReLU(inplace=True)
                (2): Linear(in_features=512, out_features=16, bias=False)
              )
              (qkv): Linear(in_features=512, out_features=1536, bias=False)
              (attn_drop): Dropout(p=0.0, inplace=False)
              (proj): Linear(in_features=512, out_features=512, bias=True)
              (proj_drop): Dropout(p=0.0, inplace=False)
              (softmax): Softmax(dim=-1)
            )
            (drop_path): DropPath()
            (norm2): LayerNorm((512,), eps=1e-05, elementwise_affine=True)
            (mlp): Mlp(
              (fc1): Linear(in_features=512, out_features=2048, bias=True)
              (act): GELU(approximate='none')
              (fc2): Linear(in_features=2048, out_features=512, bias=True)
              (drop): Dropout(p=0.0, inplace=False)
            )
          )
          (5): SwinTransformerBlock(
            dim=512, input_resolution=(16, 16), num_heads=16, window_size=8, shift_size=4, mlp_ratio=4.0
            (norm1): LayerNorm((512,), eps=1e-05, elementwise_affine=True)
            (attn): WindowAttention(
              dim=512, window_size=(8, 8), pretrained_window_size=(0, 0), num_heads=16
              (cpb_mlp): Sequential(
                (0): Linear(in_features=2, out_features=512, bias=True)
                (1): ReLU(inplace=True)
                (2): Linear(in_features=512, out_features=16, bias=False)
              )
              (qkv): Linear(in_features=512, out_features=1536, bias=False)
              (attn_drop): Dropout(p=0.0, inplace=False)
              (proj): Linear(in_features=512, out_features=512, bias=True)
              (proj_drop): Dropout(p=0.0, inplace=False)
              (softmax): Softmax(dim=-1)
            )
            (drop_path): DropPath()
            (norm2): LayerNorm((512,), eps=1e-05, elementwise_affine=True)
            (mlp): Mlp(
              (fc1): Linear(in_features=512, out_features=2048, bias=True)
              (act): GELU(approximate='none')
              (fc2): Linear(in_features=2048, out_features=512, bias=True)
              (drop): Dropout(p=0.0, inplace=False)
            )
          )
          (6): SwinTransformerBlock(
            dim=512, input_resolution=(16, 16), num_heads=16, window_size=8, shift_size=0, mlp_ratio=4.0
            (norm1): LayerNorm((512,), eps=1e-05, elementwise_affine=True)
            (attn): WindowAttention(
              dim=512, window_size=(8, 8), pretrained_window_size=(0, 0), num_heads=16
              (cpb_mlp): Sequential(
                (0): Linear(in_features=2, out_features=512, bias=True)
                (1): ReLU(inplace=True)
                (2): Linear(in_features=512, out_features=16, bias=False)
              )
              (qkv): Linear(in_features=512, out_features=1536, bias=False)
              (attn_drop): Dropout(p=0.0, inplace=False)
              (proj): Linear(in_features=512, out_features=512, bias=True)
              (proj_drop): Dropout(p=0.0, inplace=False)
              (softmax): Softmax(dim=-1)
            )
            (drop_path): DropPath()
            (norm2): LayerNorm((512,), eps=1e-05, elementwise_affine=True)
            (mlp): Mlp(
              (fc1): Linear(in_features=512, out_features=2048, bias=True)
              (act): GELU(approximate='none')
              (fc2): Linear(in_features=2048, out_features=512, bias=True)
              (drop): Dropout(p=0.0, inplace=False)
            )
          )
          (7): SwinTransformerBlock(
            dim=512, input_resolution=(16, 16), num_heads=16, window_size=8, shift_size=4, mlp_ratio=4.0
            (norm1): LayerNorm((512,), eps=1e-05, elementwise_affine=True)
            (attn): WindowAttention(
              dim=512, window_size=(8, 8), pretrained_window_size=(0, 0), num_heads=16
              (cpb_mlp): Sequential(
                (0): Linear(in_features=2, out_features=512, bias=True)
                (1): ReLU(inplace=True)
                (2): Linear(in_features=512, out_features=16, bias=False)
              )
              (qkv): Linear(in_features=512, out_features=1536, bias=False)
              (attn_drop): Dropout(p=0.0, inplace=False)
              (proj): Linear(in_features=512, out_features=512, bias=True)
              (proj_drop): Dropout(p=0.0, inplace=False)
              (softmax): Softmax(dim=-1)
            )
            (drop_path): DropPath()
            (norm2): LayerNorm((512,), eps=1e-05, elementwise_affine=True)
            (mlp): Mlp(
              (fc1): Linear(in_features=512, out_features=2048, bias=True)
              (act): GELU(approximate='none')
              (fc2): Linear(in_features=2048, out_features=512, bias=True)
              (drop): Dropout(p=0.0, inplace=False)
            )
          )
          (8): SwinTransformerBlock(
            dim=512, input_resolution=(16, 16), num_heads=16, window_size=8, shift_size=0, mlp_ratio=4.0
            (norm1): LayerNorm((512,), eps=1e-05, elementwise_affine=True)
            (attn): WindowAttention(
              dim=512, window_size=(8, 8), pretrained_window_size=(0, 0), num_heads=16
              (cpb_mlp): Sequential(
                (0): Linear(in_features=2, out_features=512, bias=True)
                (1): ReLU(inplace=True)
                (2): Linear(in_features=512, out_features=16, bias=False)
              )
              (qkv): Linear(in_features=512, out_features=1536, bias=False)
              (attn_drop): Dropout(p=0.0, inplace=False)
              (proj): Linear(in_features=512, out_features=512, bias=True)
              (proj_drop): Dropout(p=0.0, inplace=False)
              (softmax): Softmax(dim=-1)
            )
            (drop_path): DropPath()
            (norm2): LayerNorm((512,), eps=1e-05, elementwise_affine=True)
            (mlp): Mlp(
              (fc1): Linear(in_features=512, out_features=2048, bias=True)
              (act): GELU(approximate='none')
              (fc2): Linear(in_features=2048, out_features=512, bias=True)
              (drop): Dropout(p=0.0, inplace=False)
            )
          )
          (9): SwinTransformerBlock(
            dim=512, input_resolution=(16, 16), num_heads=16, window_size=8, shift_size=4, mlp_ratio=4.0
            (norm1): LayerNorm((512,), eps=1e-05, elementwise_affine=True)
            (attn): WindowAttention(
              dim=512, window_size=(8, 8), pretrained_window_size=(0, 0), num_heads=16
              (cpb_mlp): Sequential(
                (0): Linear(in_features=2, out_features=512, bias=True)
                (1): ReLU(inplace=True)
                (2): Linear(in_features=512, out_features=16, bias=False)
              )
              (qkv): Linear(in_features=512, out_features=1536, bias=False)
              (attn_drop): Dropout(p=0.0, inplace=False)
              (proj): Linear(in_features=512, out_features=512, bias=True)
              (proj_drop): Dropout(p=0.0, inplace=False)
              (softmax): Softmax(dim=-1)
            )
            (drop_path): DropPath()
            (norm2): LayerNorm((512,), eps=1e-05, elementwise_affine=True)
            (mlp): Mlp(
              (fc1): Linear(in_features=512, out_features=2048, bias=True)
              (act): GELU(approximate='none')
              (fc2): Linear(in_features=2048, out_features=512, bias=True)
              (drop): Dropout(p=0.0, inplace=False)
            )
          )
          (10): SwinTransformerBlock(
            dim=512, input_resolution=(16, 16), num_heads=16, window_size=8, shift_size=0, mlp_ratio=4.0
            (norm1): LayerNorm((512,), eps=1e-05, elementwise_affine=True)
            (attn): WindowAttention(
              dim=512, window_size=(8, 8), pretrained_window_size=(0, 0), num_heads=16
              (cpb_mlp): Sequential(
                (0): Linear(in_features=2, out_features=512, bias=True)
                (1): ReLU(inplace=True)
                (2): Linear(in_features=512, out_features=16, bias=False)
              )
              (qkv): Linear(in_features=512, out_features=1536, bias=False)
              (attn_drop): Dropout(p=0.0, inplace=False)
              (proj): Linear(in_features=512, out_features=512, bias=True)
              (proj_drop): Dropout(p=0.0, inplace=False)
              (softmax): Softmax(dim=-1)
            )
            (drop_path): DropPath()
            (norm2): LayerNorm((512,), eps=1e-05, elementwise_affine=True)
            (mlp): Mlp(
              (fc1): Linear(in_features=512, out_features=2048, bias=True)
              (act): GELU(approximate='none')
              (fc2): Linear(in_features=2048, out_features=512, bias=True)
              (drop): Dropout(p=0.0, inplace=False)
            )
          )
          (11): SwinTransformerBlock(
            dim=512, input_resolution=(16, 16), num_heads=16, window_size=8, shift_size=4, mlp_ratio=4.0
            (norm1): LayerNorm((512,), eps=1e-05, elementwise_affine=True)
            (attn): WindowAttention(
              dim=512, window_size=(8, 8), pretrained_window_size=(0, 0), num_heads=16
              (cpb_mlp): Sequential(
                (0): Linear(in_features=2, out_features=512, bias=True)
                (1): ReLU(inplace=True)
                (2): Linear(in_features=512, out_features=16, bias=False)
              )
              (qkv): Linear(in_features=512, out_features=1536, bias=False)
              (attn_drop): Dropout(p=0.0, inplace=False)
              (proj): Linear(in_features=512, out_features=512, bias=True)
              (proj_drop): Dropout(p=0.0, inplace=False)
              (softmax): Softmax(dim=-1)
            )
            (drop_path): DropPath()
            (norm2): LayerNorm((512,), eps=1e-05, elementwise_affine=True)
            (mlp): Mlp(
              (fc1): Linear(in_features=512, out_features=2048, bias=True)
              (act): GELU(approximate='none')
              (fc2): Linear(in_features=2048, out_features=512, bias=True)
              (drop): Dropout(p=0.0, inplace=False)
            )
          )
          (12): SwinTransformerBlock(
            dim=512, input_resolution=(16, 16), num_heads=16, window_size=8, shift_size=0, mlp_ratio=4.0
            (norm1): LayerNorm((512,), eps=1e-05, elementwise_affine=True)
            (attn): WindowAttention(
              dim=512, window_size=(8, 8), pretrained_window_size=(0, 0), num_heads=16
              (cpb_mlp): Sequential(
                (0): Linear(in_features=2, out_features=512, bias=True)
                (1): ReLU(inplace=True)
                (2): Linear(in_features=512, out_features=16, bias=False)
              )
              (qkv): Linear(in_features=512, out_features=1536, bias=False)
              (attn_drop): Dropout(p=0.0, inplace=False)
              (proj): Linear(in_features=512, out_features=512, bias=True)
              (proj_drop): Dropout(p=0.0, inplace=False)
              (softmax): Softmax(dim=-1)
            )
            (drop_path): DropPath()
            (norm2): LayerNorm((512,), eps=1e-05, elementwise_affine=True)
            (mlp): Mlp(
              (fc1): Linear(in_features=512, out_features=2048, bias=True)
              (act): GELU(approximate='none')
              (fc2): Linear(in_features=2048, out_features=512, bias=True)
              (drop): Dropout(p=0.0, inplace=False)
            )
          )
          (13): SwinTransformerBlock(
            dim=512, input_resolution=(16, 16), num_heads=16, window_size=8, shift_size=4, mlp_ratio=4.0
            (norm1): LayerNorm((512,), eps=1e-05, elementwise_affine=True)
            (attn): WindowAttention(
              dim=512, window_size=(8, 8), pretrained_window_size=(0, 0), num_heads=16
              (cpb_mlp): Sequential(
                (0): Linear(in_features=2, out_features=512, bias=True)
                (1): ReLU(inplace=True)
                (2): Linear(in_features=512, out_features=16, bias=False)
              )
              (qkv): Linear(in_features=512, out_features=1536, bias=False)
              (attn_drop): Dropout(p=0.0, inplace=False)
              (proj): Linear(in_features=512, out_features=512, bias=True)
              (proj_drop): Dropout(p=0.0, inplace=False)
              (softmax): Softmax(dim=-1)
            )
            (drop_path): DropPath()
            (norm2): LayerNorm((512,), eps=1e-05, elementwise_affine=True)
            (mlp): Mlp(
              (fc1): Linear(in_features=512, out_features=2048, bias=True)
              (act): GELU(approximate='none')
              (fc2): Linear(in_features=2048, out_features=512, bias=True)
              (drop): Dropout(p=0.0, inplace=False)
            )
          )
          (14): SwinTransformerBlock(
            dim=512, input_resolution=(16, 16), num_heads=16, window_size=8, shift_size=0, mlp_ratio=4.0
            (norm1): LayerNorm((512,), eps=1e-05, elementwise_affine=True)
            (attn): WindowAttention(
              dim=512, window_size=(8, 8), pretrained_window_size=(0, 0), num_heads=16
              (cpb_mlp): Sequential(
                (0): Linear(in_features=2, out_features=512, bias=True)
                (1): ReLU(inplace=True)
                (2): Linear(in_features=512, out_features=16, bias=False)
              )
              (qkv): Linear(in_features=512, out_features=1536, bias=False)
              (attn_drop): Dropout(p=0.0, inplace=False)
              (proj): Linear(in_features=512, out_features=512, bias=True)
              (proj_drop): Dropout(p=0.0, inplace=False)
              (softmax): Softmax(dim=-1)
            )
            (drop_path): DropPath()
            (norm2): LayerNorm((512,), eps=1e-05, elementwise_affine=True)
            (mlp): Mlp(
              (fc1): Linear(in_features=512, out_features=2048, bias=True)
              (act): GELU(approximate='none')
              (fc2): Linear(in_features=2048, out_features=512, bias=True)
              (drop): Dropout(p=0.0, inplace=False)
            )
          )
          (15): SwinTransformerBlock(
            dim=512, input_resolution=(16, 16), num_heads=16, window_size=8, shift_size=4, mlp_ratio=4.0
            (norm1): LayerNorm((512,), eps=1e-05, elementwise_affine=True)
            (attn): WindowAttention(
              dim=512, window_size=(8, 8), pretrained_window_size=(0, 0), num_heads=16
              (cpb_mlp): Sequential(
                (0): Linear(in_features=2, out_features=512, bias=True)
                (1): ReLU(inplace=True)
                (2): Linear(in_features=512, out_features=16, bias=False)
              )
              (qkv): Linear(in_features=512, out_features=1536, bias=False)
              (attn_drop): Dropout(p=0.0, inplace=False)
              (proj): Linear(in_features=512, out_features=512, bias=True)
              (proj_drop): Dropout(p=0.0, inplace=False)
              (softmax): Softmax(dim=-1)
            )
            (drop_path): DropPath()
            (norm2): LayerNorm((512,), eps=1e-05, elementwise_affine=True)
            (mlp): Mlp(
              (fc1): Linear(in_features=512, out_features=2048, bias=True)
              (act): GELU(approximate='none')
              (fc2): Linear(in_features=2048, out_features=512, bias=True)
              (drop): Dropout(p=0.0, inplace=False)
            )
          )
          (16): SwinTransformerBlock(
            dim=512, input_resolution=(16, 16), num_heads=16, window_size=8, shift_size=0, mlp_ratio=4.0
            (norm1): LayerNorm((512,), eps=1e-05, elementwise_affine=True)
            (attn): WindowAttention(
              dim=512, window_size=(8, 8), pretrained_window_size=(0, 0), num_heads=16
              (cpb_mlp): Sequential(
                (0): Linear(in_features=2, out_features=512, bias=True)
                (1): ReLU(inplace=True)
                (2): Linear(in_features=512, out_features=16, bias=False)
              )
              (qkv): Linear(in_features=512, out_features=1536, bias=False)
              (attn_drop): Dropout(p=0.0, inplace=False)
              (proj): Linear(in_features=512, out_features=512, bias=True)
              (proj_drop): Dropout(p=0.0, inplace=False)
              (softmax): Softmax(dim=-1)
            )
            (drop_path): DropPath()
            (norm2): LayerNorm((512,), eps=1e-05, elementwise_affine=True)
            (mlp): Mlp(
              (fc1): Linear(in_features=512, out_features=2048, bias=True)
              (act): GELU(approximate='none')
              (fc2): Linear(in_features=2048, out_features=512, bias=True)
              (drop): Dropout(p=0.0, inplace=False)
            )
          )
          (17): SwinTransformerBlock(
            dim=512, input_resolution=(16, 16), num_heads=16, window_size=8, shift_size=4, mlp_ratio=4.0
            (norm1): LayerNorm((512,), eps=1e-05, elementwise_affine=True)
            (attn): WindowAttention(
              dim=512, window_size=(8, 8), pretrained_window_size=(0, 0), num_heads=16
              (cpb_mlp): Sequential(
                (0): Linear(in_features=2, out_features=512, bias=True)
                (1): ReLU(inplace=True)
                (2): Linear(in_features=512, out_features=16, bias=False)
              )
              (qkv): Linear(in_features=512, out_features=1536, bias=False)
              (attn_drop): Dropout(p=0.0, inplace=False)
              (proj): Linear(in_features=512, out_features=512, bias=True)
              (proj_drop): Dropout(p=0.0, inplace=False)
              (softmax): Softmax(dim=-1)
            )
            (drop_path): DropPath()
            (norm2): LayerNorm((512,), eps=1e-05, elementwise_affine=True)
            (mlp): Mlp(
              (fc1): Linear(in_features=512, out_features=2048, bias=True)
              (act): GELU(approximate='none')
              (fc2): Linear(in_features=2048, out_features=512, bias=True)
              (drop): Dropout(p=0.0, inplace=False)
            )
          )
        )
        (downsample): PatchMerging(
          input_resolution=(16, 16), dim=512
          (reduction): Linear(in_features=2048, out_features=1024, bias=False)
          (norm): LayerNorm((1024,), eps=1e-05, elementwise_affine=True)
        )
      )
      (3): BasicLayer(
        dim=1024, input_resolution=(8, 8), depth=2
        (blocks): ModuleList(
          (0): SwinTransformerBlock(
            dim=1024, input_resolution=(8, 8), num_heads=32, window_size=8, shift_size=0, mlp_ratio=4.0
            (norm1): LayerNorm((1024,), eps=1e-05, elementwise_affine=True)
            (attn): WindowAttention(
              dim=1024, window_size=(8, 8), pretrained_window_size=(0, 0), num_heads=32
              (cpb_mlp): Sequential(
                (0): Linear(in_features=2, out_features=512, bias=True)
                (1): ReLU(inplace=True)
                (2): Linear(in_features=512, out_features=32, bias=False)
              )
              (qkv): Linear(in_features=1024, out_features=3072, bias=False)
              (attn_drop): Dropout(p=0.0, inplace=False)
              (proj): Linear(in_features=1024, out_features=1024, bias=True)
              (proj_drop): Dropout(p=0.0, inplace=False)
              (softmax): Softmax(dim=-1)
            )
            (drop_path): DropPath()
            (norm2): LayerNorm((1024,), eps=1e-05, elementwise_affine=True)
            (mlp): Mlp(
              (fc1): Linear(in_features=1024, out_features=4096, bias=True)
              (act): GELU(approximate='none')
              (fc2): Linear(in_features=4096, out_features=1024, bias=True)
              (drop): Dropout(p=0.0, inplace=False)
            )
          )
          (1): SwinTransformerBlock(
            dim=1024, input_resolution=(8, 8), num_heads=32, window_size=8, shift_size=0, mlp_ratio=4.0
            (norm1): LayerNorm((1024,), eps=1e-05, elementwise_affine=True)
            (attn): WindowAttention(
              dim=1024, window_size=(8, 8), pretrained_window_size=(0, 0), num_heads=32
              (cpb_mlp): Sequential(
                (0): Linear(in_features=2, out_features=512, bias=True)
                (1): ReLU(inplace=True)
                (2): Linear(in_features=512, out_features=32, bias=False)
              )
              (qkv): Linear(in_features=1024, out_features=3072, bias=False)
              (attn_drop): Dropout(p=0.0, inplace=False)
              (proj): Linear(in_features=1024, out_features=1024, bias=True)
              (proj_drop): Dropout(p=0.0, inplace=False)
              (softmax): Softmax(dim=-1)
            )
            (drop_path): DropPath()
            (norm2): LayerNorm((1024,), eps=1e-05, elementwise_affine=True)
            (mlp): Mlp(
              (fc1): Linear(in_features=1024, out_features=4096, bias=True)
              (act): GELU(approximate='none')
              (fc2): Linear(in_features=4096, out_features=1024, bias=True)
              (drop): Dropout(p=0.0, inplace=False)
            )
          )
        )
      )
    )
    (norm): LayerNorm((1024,), eps=1e-05, elementwise_affine=True)
    (avgpool): AdaptiveAvgPool1d(output_size=3)
  )
  (decoder): Decoder(
    (norm): BatchNorm2d(3, eps=1e-05, momentum=0.1, affine=True, track_running_stats=True)
    (layers): ModuleList(
      (0): UnNamedBlock(
        (conv): Conv2d(3, 3, kernel_size=(3, 3), stride=(1, 1), padding=(1, 1))
        (dropout): Dropout(p=0.1, inplace=False)
        (layers): ModuleList(
          (0): GVIAttentionBlock(
            (alpha1): Linear(in_features=3, out_features=1024, bias=True)
            (alpha2): Linear(in_features=3, out_features=1024, bias=True)
            (softmax): Softmax(dim=-1)
          )
          (1): GVIAttentionBlock(
            (alpha1): Linear(in_features=3, out_features=1024, bias=True)
            (alpha2): Linear(in_features=3, out_features=1024, bias=True)
            (softmax): Softmax(dim=-1)
          )
        )
        (norm): BatchNorm2d(3, eps=1e-05, momentum=0.1, affine=True, track_running_stats=True)
      )
      (1): UnNamedBlock(
        (conv): Conv2d(3, 3, kernel_size=(3, 3), stride=(1, 1), padding=(1, 1))
        (dropout): Dropout(p=0.1, inplace=False)
        (layers): ModuleList(
          (0): GVIAttentionBlock(
            (alpha1): Linear(in_features=3, out_features=1024, bias=True)
            (alpha2): Linear(in_features=3, out_features=1024, bias=True)
            (softmax): Softmax(dim=-1)
          )
          (1): GVIAttentionBlock(
            (alpha1): Linear(in_features=3, out_features=1024, bias=True)
            (alpha2): Linear(in_features=3, out_features=1024, bias=True)
            (softmax): Softmax(dim=-1)
          )
        )
        (norm): BatchNorm2d(3, eps=1e-05, momentum=0.1, affine=True, track_running_stats=True)
      )
      (2): UnNamedBlock(
        (conv): Conv2d(3, 3, kernel_size=(3, 3), stride=(1, 1), padding=(1, 1))
        (dropout): Dropout(p=0.1, inplace=False)
        (layers): ModuleList(
          (0): GVIAttentionBlock(
            (alpha1): Linear(in_features=3, out_features=1024, bias=True)
            (alpha2): Linear(in_features=3, out_features=1024, bias=True)
            (softmax): Softmax(dim=-1)
          )
          (1): GVIAttentionBlock(
            (alpha1): Linear(in_features=3, out_features=1024, bias=True)
            (alpha2): Linear(in_features=3, out_features=1024, bias=True)
            (softmax): Softmax(dim=-1)
          )
          (2): GVIAttentionBlock(
            (alpha1): Linear(in_features=3, out_features=1024, bias=True)
            (alpha2): Linear(in_features=3, out_features=1024, bias=True)
            (softmax): Softmax(dim=-1)
          )
          (3): GVIAttentionBlock(
            (alpha1): Linear(in_features=3, out_features=1024, bias=True)
            (alpha2): Linear(in_features=3, out_features=1024, bias=True)
            (softmax): Softmax(dim=-1)
          )
          (4): GVIAttentionBlock(
            (alpha1): Linear(in_features=3, out_features=1024, bias=True)
            (alpha2): Linear(in_features=3, out_features=1024, bias=True)
            (softmax): Softmax(dim=-1)
          )
          (5): GVIAttentionBlock(
            (alpha1): Linear(in_features=3, out_features=1024, bias=True)
            (alpha2): Linear(in_features=3, out_features=1024, bias=True)
            (softmax): Softmax(dim=-1)
          )
          (6): GVIAttentionBlock(
            (alpha1): Linear(in_features=3, out_features=1024, bias=True)
            (alpha2): Linear(in_features=3, out_features=1024, bias=True)
            (softmax): Softmax(dim=-1)
          )
          (7): GVIAttentionBlock(
            (alpha1): Linear(in_features=3, out_features=1024, bias=True)
            (alpha2): Linear(in_features=3, out_features=1024, bias=True)
            (softmax): Softmax(dim=-1)
          )
        )
        (norm): BatchNorm2d(3, eps=1e-05, momentum=0.1, affine=True, track_running_stats=True)
      )
      (3): UnNamedBlock(
        (conv): Conv2d(3, 3, kernel_size=(3, 3), stride=(1, 1), padding=(1, 1))
        (dropout): Dropout(p=0.1, inplace=False)
        (layers): ModuleList(
          (0): GVIAttentionBlock(
            (alpha1): Linear(in_features=3, out_features=1024, bias=True)
            (alpha2): Linear(in_features=3, out_features=1024, bias=True)
            (softmax): Softmax(dim=-1)
          )
          (1): GVIAttentionBlock(
            (alpha1): Linear(in_features=3, out_features=1024, bias=True)
            (alpha2): Linear(in_features=3, out_features=1024, bias=True)
            (softmax): Softmax(dim=-1)
          )
        )
        (norm): BatchNorm2d(3, eps=1e-05, momentum=0.1, affine=True, track_running_stats=True)
      )
    )
  )
)
[2023-03-14 12:58:32 mynet_v1] (main_mynet.py 102): INFO number of params: 87008870
[2023-03-14 12:58:32 mynet_v1] (main_mynet.py 105): INFO number of GFLOPs: 0.0
[2023-03-14 12:58:32 mynet_v1] (main_mynet.py 140): INFO no checkpoint found in output\mynet_v1\default, ignoring auto resume
[2023-03-14 12:58:32 mynet_v1] (main_mynet.py 158): INFO Start training
